project2/mnist/part2-mnist/mnist_model_fully_connected.pt (torch, 905431 bytes, 8 tensors)

weight f4 [32, 1, 3, 3]
0.27479073 -0.0041002277 -0.84775686 0.18435527 0.95361346 0.206546 -0.69122773 0.28732148
0.07286049 -0.5048992 0.27477717 0.19190958 -0.30192304 0.1332831 0.3459223 -0.3856939
0.2399942 0.44390154 -0.23102961 -0.118322015 -0.23302256 -0.39956504 -0.32055527 -0.036670256
-0.31978574 0.2641232 0.37541488 -0.188753 -0.3411382 0.038826253 0.022664301 0.16070129
0.12000061 -0.2931365 0.030229207 0.37011996 0.19973455 0.46654892 -0.09242227 0.0026937714
-0.09979158 -0.60077775 0.41011634 -0.05023077 0.059807714 0.038566135 -0.477621 -0.25665772
0.2852433 -0.5897901 -0.5295929 0.747458 0.60275775 0.3000441 -0.19196373 -0.67301166
-0.4355703 -0.41041788 0.051244706 0.61472714 0.60381913 0.51938134 -0.26380748 0.1311047
-0.3925794 -0.2013609 0.34799448 -0.17473462 0.08510248 0.30573362 -0.048757173 0.102161065
0.44245037 -0.3822048 -0.7463438 0.30942085 0.33417127 -0.017638905 -0.033445515 0.34108585
0.20756601 -0.2228715 0.16526109 -0.32957235 0.20180331 0.06653552 -0.6465272 0.4586224
0.5002182 -0.5001901 -0.06539278 0.14016074 -0.044513132 -0.057274785 -0.2162316 0.22690518
-0.313721 0.26636198 -0.05308067 -0.0048038056 -0.39886802 -0.1908254 -0.49508345 -0.12601493
-0.31551367 -0.33830708 -0.16472235 -0.06961506 -0.10060918 -0.19370162 -0.07981965 -0.2099255
-0.35599265 -0.29223686 0.30115736 0.09063887 -0.31131542 0.25482377 -0.07080976 -0.5184804
-0.19528657 -0.14604416 -0.28259373 0.43496597 0.16722883 0.51263344 -0.33087918 -0.24005015
0.11027074 0.5152408 0.5802411 0.4532125 -0.25380898 -0.31419843 -0.53972346 -0.43898323
-0.591428 -0.44316307 -0.1322255 0.16444898 0.22335653 -0.037420157 0.40923774 0.22817717
-0.54548717 0.2020739 0.5084939 -0.734284 0.25490487 0.4549696 -0.49926254 0.14932865
0.071326844 -0.7555026 0.45847702 0.52133095 -0.06285819 1.029016 -0.40579364 0.5671017
0.37907404 -0.8366572 0.8330967 0.43810636 0.5584831 -0.2155908 0.3491239 -0.11134708
-0.80760086 -1.063768 -0.2835325 0.12280262 0.021536835 -0.0070470623 -0.21731034 -0.15306783
-0.31914735 -0.26889727 -0.26133355 0.15469396 0.6454354 0.660352 -0.327526 0.43305436
-0.51482105 -0.6580908 -0.18028928 -0.42705402 -0.063795574 0.2726985 0.03723102 -0.40445933
0.4231394 -0.26458627 -0.25821644 0.14766237 0.0729921 -0.21019007 0.040612362 -0.018136565
-0.18318857 -0.19710474 0.22526872 -0.20809942 -0.14662722 0.10439784 -0.01492217 -0.32016164
0.30009526 -0.05110004 -0.44178748 0.27484304 0.19355616 -0.5038571 0.28796768 0.056874935
-0.17322317 0.3606369 0.14040363 -0.09284276 0.03404654 0.49965438 -0.58054924 -0.399142
-0.05952701 -0.17889878 0.18775693 -0.33977062 0.25050446 0.36355218 -0.100141816 -0.12726206
0.07366462 0.11939605 -0.30851504 -0.1754429 -0.24799038 0.37281093 -0.25566548 -0.42432728
-0.051225644 0.40653607 0.5680724 0.36645812 0.07340156 -0.22969145 0.001241724 0.1554204
-0.21266392 -0.3606429 -0.1031192 -0.2443243 -0.4712615 -0.552394 0.083018266 -0.42784858
00000000: 5fb1 8c3e 345b 86bb 9806 59bf a1c7 3c3e
00000010: 0320 743f cb80 533e 4df4 30bf cd1b 933e
00000020: e137 953d 1341 01bf 98af 8c3e f283 443e
00000030: a895 9abe 5d7b 083e ba1c b13e ac79 c5be
00000040: 0ac1 753e 1047 e33e 0793 6cbe d052 f2bd
00000050: 779d 6ebe ca93 ccbe d21f a4be 8d33 16bd
00000060: f5ba a3be 283b 873e 6136 c03e 7748 41be
00000070: aba9 aebe 4708 1f3d 7caa b93c e18e 243e
00000080: e1c2 f53d fd15 96be 3ea3 f73c 5d80 bd3e
00000090: 3787 4c3e 80df ee3e e347 bdbd fc89 303b
000000a0: 875f ccbd 92cc 19bf c5fa d13e c8be 4dbd
000000b0: eff8 743d 86f7 1d3d bd8a f4be a468 83be
000000c0: 690b 923e 7cfc 16bf 6693 07bf 6859 3f3f
000000d0: 554e 1a3f 619f 993e 2492 44be 7e4a 2cbf
000000e0: 1203 dfbe 4b22 d2be f8e5 513d c25e 1d3f
000000f0: e493 1a3f 2df6 043f c611 87be 4f40 063e
00000100: 2b00 c9be 8d31 4ebe 552c b23e a2ed 32be
00000110: 364a ae3d 1e89 9c3e 9ab5 47bd d239 d13d
00000120: db88 e23e 59b0 c3be 6310 3fbf 696c 9e3e
00000130: 7f18 ab3e 777f 90bc 2afe 08bd cea2 ae3e
00000140: 2f8c 543e 6d38 64be 343a 293e b5bd a8be
00000150: 87a5 4e3e c643 883d ce82 25bf 8ed0 ea3e
00000160: 4d0e 003f 750c 00bf a6ec 85bd 4c86 0f3e
00000170: 6753 36bd f798 6abd d16b 5dbe d559 683e
00000180: 0aa0 a0be 9960 883e 1e6b 59bd 3e69 9dbb
00000190: 6e38 ccbe bc67 43be 947b fdbe 0f0a 01be
000001a0: 028b a1be 9636 adbe faac 28be 5792 8ebd
000001b0: 300c cebd b859 46be 7c78 a3bd b6f6 56be
000001c0: ab44 b6be 12a0 95be 4c31 9a3e dfa0 b93d
000001d0: bc64 9fbe 4378 823e b504 91bd 22bb 04bf
000001e0: 34f9 47be 9a8c 15be 20b0 90be dcb3 de3e
000001f0: 093e 2b3e f23b 033f ff68 a9be b5cf 75be
00000200: a0d5 e13d d2e6 033f ae8a 143f 780b e83e
00000210: 40f3 81be 9ede a0be 512b 0abf 69c2 e0be
00000220: d367 17bf 45e6 e2be 1f66 07be 5065 283e
00000230: 93b7 643e e145 19bd 9c87 d13e 47a7 693e
00000240: 0ca5 0bbf 76ec 4e3e a82c 023f 09fa 3bbf
00000250: e482 823e c7f1 e83e 579f ffbe 9ce9 183e
00000260: cf13 923d 9e68 41bf 80bd ea3e f275 053f
00000270: cbbb 80bd ccb6 833f 2fc4 cfbe 942d 113f
00000280: fe15 c23e 2b2f 56bf d345 553f 7a4f e03e
00000290: c0f8 0e3f d6c3 5cbe 5ec0 b23e f009 e4bd
000002a0: eebe 4ebf 8d29 88bf 2c2b 91be f17f fb3d
000002b0: 046e b03c 0beb e6bb 9a86 5ebe d0bd 1cbe
000002c0: 4867 a3be e7ac 89be 83cd 85be 1868 1e3e
000002d0: 413b 253f d40c 293f 7db1 a7be 4db9 dd3e
000002e0: 50cb 03bf a378 28bf c19d 38be d3a6 dabe
000002f0: 41a7 82bd 239f 8b3e 8e7f 183d 4b15 cfbe
00000300: baa5 d83e da77 87be f234 84be ce34 173e
00000310: e27c 953d 113c 57be 2659 263d 2293 94bc
00000320: c995 3bbe d3d5 49be d8ac 663e 0418 55be
00000330: 7225 16be 89ce d53d 1e7c 74bc 3aec a3be
00000340: 16a6 993e 474e 51bd f831 e2be 3ab8 8c3e
00000350: 9633 463e c7fc 00bf 8070 933e b1f5 683d
00000360: 6a61 31be 66a5 b83e f8c5 0f3e 5824 bebd
00000370: 6274 0b3d b3d2 ff3e e09e 14bf 575c ccbe
00000380: 98d2 73bd 3e31 37be 5a43 403e 6af6 adbe
00000390: 1f42 803e 8323 ba3e 2717 cdbd fc50 02be
000003a0: 7add 963d eb85 f43d aff5 9dbe 4ea7 33be
000003b0: 31f1 7dbe 13e1 be3e 96e6 82be 6d41 d9be
000003c0: fbd1 51bd 7f25 d03e 316d 113f 66a0 bb3e
000003d0: 8f53 963d 3c34 6bbe 58c1 a23a 8626 1f3e
000003e0: 92c4 59be 30a6 b8be 2930 d3bd 2630 7abe
000003f0: 3049 f1be b169 0dbf 7b05 aa3d f80e dbbe

bias f4 [32]
-0.24102232 -0.18419234 0.17750096 -0.11291345 -0.18874809 -0.15780793 -0.08897739 -0.11136689
-0.29607102 -0.029092003 -0.31091565 0.5183238 0.26847002 -0.109635316 -0.007859596 0.049707707
-0.05501893 -0.67456526 -0.11954063 -0.14241695 0.028301142 -0.0406003 -0.051187903 0.015343431
-0.0536916 -0.16282618 -0.02609395 -0.039257668 -0.28910768 -0.22855003 -0.19372046 0.05671132
00000000: 8ece 76be eb9c 3cbe d0c2 353e 2b3f e7bd
00000010: 2e47 41be 6798 21be c739 b6bd 5314 e4bd
00000020: 9f96 97be 5a52 eebc 5630 9fbe deb0 043f
00000030: e774 893e 7b88 e0bd 89c5 00bc 4f9a 4b3d
00000040: 885b 61bd 4fb0 2cbf b8d1 f4bd c0d5 11be
00000050: ccd7 e73c 804c 26bd 68aa 51bd 0463 7b3c
00000060: b9eb 5bbd e8bb 26be fbc2 d5bc a6cc 20bd
00000070: ec05 94be 0509 6abe a85e 46be 214a 683d

weight f4 [64, 32, 3, 3]
-0.0715472 0.07571711 0.014888032 0.014556192 -0.09814583 -0.09649815 0.022277318 0.13247992
0.000449126 -0.082168266 0.01563172 0.16155823 -0.07176709 -0.050888814 -0.031960696 0.022342911
0.030101713 -0.0294906 0.024437247 -0.074862994 -0.07844102 0.001476216 -0.046114225 0.010667886
-0.10127916 -0.033207584 -0.026538588 0.035231743 -0.023063188 0.0048448727 0.057264756 -0.07456697
0.01274218 -0.015438931 -0.0293452 0.059474573 -0.051775113 -0.071869 0.0051991 -0.04335556
0.037032526 -0.04916873 -0.013542509 -0.023328664 -0.0077697523 0.024323558 -0.10548809 -0.11146752
0.14073098 0.2150669 0.08207455 0.013346584 0.020065468 0.047580015 -0.04723472 -0.05546239
-0.052382324 0.054789875 -0.013913181 -0.04850044 -0.010356474 0.040813472 0.030463982 -0.07136064
-0.00827766 0.013168632 -0.007223152 0.07457871 0.041572317 0.050545678 0.020116525 0.02486862
-0.03950093 -0.041477934 -0.028994294 -0.04750468 0.011672462 -0.007908022 0.047230043 0.06761136
-0.009772076 -0.07568447 -0.07062921 -0.039905727 0.063390404 0.061298154 -0.07636036 0.0045229252
0.03102942 0.059193335 0.018245177 0.0393631 -0.0382214 -0.0074487315 -0.040728994 -0.058339823
-0.003974805 -0.035988357 0.022153385 0.024790535 -0.10337567 -0.11004532 -0.061919425 0.0022415274
-0.10053556 -0.025784338 -0.0903651 -0.08393993 0.056683913 -0.05076975 -0.10927534 -0.038839348
-0.027271932 -0.00634518 -0.02539476 0.0020591128 -0.08010316 -0.052803714 -0.10913129 -0.07240602
0.06879173 0.04343264 0.0029416562 -0.026839754 -0.007457829 0.03058988 0.03749933 0.012033314
0.053505417 -0.06451588 -0.074522 -0.010553016 0.06627611 -0.02037123 -0.091555774 -0.06396382
-0.079717025 -0.013526352 0.050424527 -0.04001822 -0.10574326 -0.034057308 -0.0027642401 0.08515526
0.0010835484 0.08222141 0.07858156 -0.04418618 -0.09828148 -0.00819673 -0.023400059 -0.06949134
-0.032074034 -0.08650952 -0.057723667 0.098448366 -0.01596763 -0.106215045 -0.15794414 -0.004954335
-0.057435803 0.06007265 0.011681453 0.054642264 0.13306683 -0.106665 0.049973596 0.053682666
-0.07500705 0.008129809 -0.050251838 0.037752423 0.053249173 -0.024475155 -0.04409323 -0.019397492
-0.052765727 0.044132363 0.010904888 0.02641736 -0.16682109 -0.058727358 -0.013829557 -0.08940779
-0.054195855 -0.024927536 -0.080940165 -0.113315955 -0.1257468 -0.11177995 -0.0076346723 -0.04053014
0.026053404 0.013157378 -0.034102906 -0.018616684 0.025177501 -0.061277185 0.040369637 0.013918438
0.021150377 0.010851329 0.054508545 0.019719174 -0.026795255 0.044392083 -0.013832377 -0.010947623
-0.020870982 0.016138542 -0.049213924 -0.03543146 -0.009472084 -0.07708761 -0.02164867 -0.019566724
-0.022659728 0.046201818 0.08997208 -0.03905455 -0.0023953074 0.08227558 0.072099894 0.013449832
-0.058564924 -0.10045552 0.018385313 0.061448965 0.04479514 -0.04220886 -0.015828561 0.061148345
-0.013282413 0.045695093 -0.073258415 -0.09212947 -0.027481478 0.1408323 0.009393695 0.010606479
0.013382026 0.092495285 0.0461599 -0.008651135 0.0032101236 -0.0288826 -0.016474007 -0.019835768
0.017637892 0.017915288 0.031014597 -0.057634853 -0.033905637 -0.0824033 0.047870286 0.061864585
00000000: 5787 92bd 9211 9b3d efec 733c 187d 6e3c
00000010: ae00 c9bd d2a0 c5bd ec7e b63c d1a8 073e
00000020: ac78 eb39 d647 a8bd 180e 803c 856f 253e
00000030: a0fa 92bd ca70 50bd 38e9 02bd 7b08 b73c
00000040: de97 f63c 4596 f1bc 9f30 c83c c551 99bd
00000050: afa5 a0bd 977d c13a 45e2 3cbd 5bc8 2e3c
00000060: 736b cfbd ad04 08bd 7467 d9bc 294f 103d
00000070: 03ef bcbc bdc1 9e3b 738e 6a3d 91b6 98bd
00000080: 94c4 503c 92f3 7cbc 5865 f0bc 9c9b 733d
00000090: 2412 54bd 0e30 93bd 365d aa3b 9a95 31bd
000000a0: 6baf 173d 2665 49bd 66e1 5dbc c11b bfbc
000000b0: 6899 febb 3342 c73c 240a d8bd 1549 e4bd
000000c0: c81b 103e 7f3a 5c3e b416 a83d a1ab 5a3c
000000d0: 5660 a43c 43e3 423d 3279 41bd 882c 63bd
000000e0: d98e 56bd 596b 603d 1cf4 63bc 66a8 46bd
000000f0: 33ae 29bc 072c 273d 9a8f f93c 8725 92bd
00000100: 069f 07bc 3fc1 573c 31b0 ecbb b9bc 983d
00000110: bc47 2a3d fc08 4f3d 69cb a43c 47b9 cb3c
00000120: bacb 21bd c4e4 29bd 7185 edbc 4494 42bd
00000130: db3d 3f3c a690 01bc 4a74 413d d377 8a3d
00000140: 0f1b 20bc 7600 9bbd 0ca6 90bd 3074 23bd
00000150: d4d2 813d c613 7b3d d262 9cbd 0c35 943b
00000160: 6931 fe3c b674 723d e976 953c 343b 213d
00000170: 0b8e 1cbd 7d14 f4bb 72d3 26bd bdf5 6ebd
00000180: 153f 82bb 8768 13bd 047b b53c 8515 cb3c
00000190: a0b6 d3bd 715f e1bd 399f 7dbd 97e6 123b
000001a0: 96e5 cdbd ad39 d3bc 5611 b9bd b3e8 abbd
000001b0: 642d 683d f1f3 4fbd c0cb dfbd 0216 1fbd
000001c0: 6369 dfbc 3aeb cfbb ac08 d0bc 2ef2 063b
000001d0: 200d a4bd b548 58bd 3a80 dfbd 9b49 94bd
000001e0: aee2 8c3d 6de6 313d cdc8 403b 0bdf dbbc
000001f0: ce60 f4bb a197 fa3c e698 193d 6127 453c
00000200: 7f28 5b3d e720 84bd fe9e 98bd 8fe6 2cbc
00000210: c5bb 873d 91e1 a6bc 9881 bbbd 77ff 82bd
00000220: ae42 a3bd a29d 5dbc f389 4e3d 25ea 23bd
00000230: ec8f d8bd ad7f 0bbd 4128 35bb e265 ae3d
00000240: da05 8e3a b363 a83d 5eef a03d 91fc 34bd
00000250: cd47 c9bd 944b 06bc 7bb1 bfbc 7a51 8ebd
00000260: 1060 03bd e72b b1bd a76f 6cbd 4c9f c93d
00000270: 8cce 82bc 4687 d9bd 1cbc 21be f957 a2bb
00000280: ce41 6bbd bd0e 763d 9163 3f3c 91d0 5f3d
00000290: ac42 083e 2e73 dabd 1db1 4c3d 5be2 5b3d
000002a0: 4c9d 99bd e432 053c dfd4 4dbd 49a2 1a3d
000002b0: ce1b 5a3d 1f80 c8bc 1a9b 34bd 7de7 9ebc
000002c0: e020 58bd 23c4 343d 6aaa 323c 3869 d83c
000002d0: 26d3 2abe 198c 70bd 5e95 62bc 6e1b b7bd
000002e0: 79fc 5dbd d534 ccbc f5c3 a5bd 3212 e8bd
000002f0: c5c3 00be e3ec e4bd 462c fabb ef02 26bd
00000300: f36d d53c 0b92 573c 7daf 0bbd 0482 98bc
00000310: 0c41 ce3c c9fd 7abd a25a 253d 290a 643c
00000320: 8e43 ad3c c6c9 313c 5a44 5f3d 1b8a a13c
00000330: b981 dbbc 79d4 353d 32a1 62bc a95d 33bc
00000340: 9ff9 aabc fa34 843c 8a94 49bd 9420 11bd
00000350: cd30 1bbc 1ce0 9dbd 8d58 b1bc 654a a0bc
00000360: e5a0 b9bc 1e3e 3d3d 4843 b83d aaf7 1fbd
00000370: 97fa 1cbb 1980 a83d 1ca9 933d af5c 5c3c
00000380: c6e1 6fbd a0bb cdbd cc9c 963c e9b1 7b3d
00000390: 1c7b 373d 33e3 2cbd e6aa 81bc b076 7a3d
000003a0: 7a9e 59bc c72a 3b3d 8208 96bd 60ae bcbd
000003b0: d620 e1bc 5836 103e 03e8 193c ccc6 2d3c
000003c0: 4940 5b3c 2b6e bd3d 2a12 3d3d 7dbd 0dbc
000003d0: f060 523b 349b ecbc 7ff4 86bc 9f7e a2bc
000003e0: 577d 903c 15c3 923c 5312 fe3c 8612 6cbd
000003f0: a3e0 0abd 10c3 a8bd a213 443d b865 7d3d

bias f4 [64]
-0.03457852 -0.0011767595 0.015799217 -0.034420453 -0.07371457 -0.02311642 -0.12701544 -0.20592181
-0.0575912 -0.2331161 -0.043160032 -0.029995643 -0.037435446 -0.08513777 -0.09307664 -0.063939825
-0.09995546 -0.029041277 -0.07152166 -0.055034272 -0.07875662 -0.045385193 0.018107377 -0.046986252
-0.07433678 -0.04227637 -0.0878091 -0.050134126 -0.1748448 -0.020575736 -0.016992658 -0.122640796
-0.11245084 -0.2661347 -0.03954516 -0.04391043 -0.08894747 -0.014253245 -0.036073346 -0.04928683
-0.022552239 -0.07532693 -0.21554329 -0.04056599 -0.058706965 -0.06921691 0.034382563 -0.01141195
-0.009274637 -0.15462339 -0.03373339 0.014246783 -0.066045955 -0.18838726 -0.12724392 -0.032521077
-0.052592553 -0.21927954 -0.025334967 -0.07107007 -0.026616031 -0.19217816 -0.07349505 -0.03364932
00000000: 35a2 0dbd 7f3d 9aba 5c6d 813c 76fc 0cbd
00000010: aaf7 96bd a55e bdbc 5610 02be 2bdd 52be
00000020: c0e4 6bbd fdb5 6ebe 93c8 30bd 6cb9 f5bc
00000030: e955 19bd b65c aebd f79e bebd e2f2 82bd
00000040: 73b5 ccbd f9e7 edbc f379 92bd 9e6b 61bd
00000050: 274b a1bd d3e5 39bd ec55 943c a874 40bd
00000060: e23d 98bd fd29 2dbd 42d5 b3bd 7159 4dbd
00000070: 840a 33be 728e a8bc 3034 8bbc 192b fbbd
00000080: a04c e6bd cf42 88be 1bfa 21bd 6cdb 33bd
00000090: 172a b6bd 7186 69bc a5c1 13bd fde0 49bd
000000a0: 79bf b8bc 0145 9abd 61b7 5cbe 8628 26bd
000000b0: b776 70bd 98c1 8dbd bbd4 0c3d 30f9 3abc
000000c0: a6f4 17bc 9855 1ebe 062c 0abd 576b 693c
000000d0: 1a43 87bd 97e8 40be 3b4c 02be d234 05bd
000000e0: 4a6b 57bd d18a 60be 478b cfbc 2f8d 91bd
000000f0: dd09 dabc 5aca 44be 9384 96bd dfd3 09bd

weight f4 [128, 1600]
-0.02337565 0.0027988395 0.058057036 0.021345362 0.033465877 0.011468729 -0.023647327 -0.024321787
-0.00051720976 0.01738901 -0.01625397 -0.016331973 0.0069079176 0.026731813 0.03190664 0.007618983
0.045324814 0.050715163 0.018790722 0.025311138 -0.0069901627 0.0025015234 0.019432863 0.0015057462
0.0050186976 -0.01624127 -0.0011123138 0.003033505 0.019832937 -0.023913128 -0.02266018 -0.005771893
0.0127056055 0.026330039 0.0024649198 -0.009784076 -0.026213739 0.0494455 0.042045154 0.03590717
-0.03457701 0.004592602 0.023192914 -0.011243918 0.0021833796 0.008443916 0.004930452 0.038883127
0.010066917 -0.036182698 -0.0060946317 -0.0019852698 0.03269358 -0.01883369 -0.007127941 -0.018524239
-0.014879332 0.011300468 -1.7434702e-05 -0.003189102 -0.01863796 0.0016600651 0.009489807 0.01240771
-0.021154406 -0.015914941 0.00406519 -0.017007582 0.022892745 -0.010030704 0.018765375 -0.020538751
0.005514736 0.008016034 -0.017174229 -0.018100148 -0.023048205 -0.030109325 -0.07706859 0.0011174845
0.022832254 -0.008941962 0.015772132 -0.060825266 0.0036686617 0.008843722 0.036123466 0.057229772
0.017619941 -0.0100622 0.0038794272 -0.05701854 0.009471042 0.021882629 0.009055152 0.017835235
-0.037922543 -0.002006751 -0.029627241 0.022875391 0.021723036 0.029317021 0.05119049 0.04771191
0.014935848 -0.019711714 -0.00076078245 0.058301363 0.04885174 -0.0039570355 0.001299087 -0.012617427
-0.021780467 0.011283917 0.0019698897 -0.0150326695 0.0052525676 -0.012720775 0.014143508 0.0019461503
0.017052244 0.0889672 0.026927888 0.003655255 -0.040111337 -0.0076102964 0.00020082308 0.03599339
0.025197355 -0.022405436 -0.024400977 0.012833724 0.03324532 0.0011974918 -0.0035644877 -0.029485011
0.010452007 0.08257379 0.035594564 0.032412864 -0.034783732 0.033253904 0.0158696 -0.0022966384
-0.009503273 -0.003833588 0.028191578 -0.040674537 0.012732392 -0.021057919 -0.015919136 -0.0031524154
-0.029052846 0.015275748 0.01826681 0.019116456 0.0034104954 0.036798924 -0.002054648 0.002340185
-0.007850597 0.03952387 0.0039668353 0.009237137 -0.00768471 -0.01492015 -0.02773238 -0.013146476
-0.041427556 -0.006343119 0.002287283 -0.02063881 0.0005949595 0.0050800308 -0.017887086 0.0009093757
0.019579938 0.0426761 0.121607006 0.0054695006 0.004841455 0.049445353 0.051838245 0.028325226
-0.0078094294 -0.00067401346 -0.031223375 -0.00061754335 -0.044677403 0.008709834 -0.028972812 -0.006098901
-0.016455734 -0.018547922 0.03802608 -0.0049366513 -0.007682103 -0.08074739 0.007997393 -0.011679748
0.008548806 -0.019189544 0.030076789 0.009560096 0.015208866 0.002322154 0.021459341 -0.042499147
-0.038964037 -0.02284238 -0.006989104 -0.014634233 0.015781082 0.005835396 0.025493124 0.007919834
0.046066016 0.05716783 0.027299508 -0.027604975 0.022607861 0.04834669 0.024687111 0.010531985
-0.017441202 -0.03457039 0.048291802 0.045418598 0.07300279 0.020726757 -0.028036527 0.019636216
-0.046642795 0.05113014 0.04981549 -0.014483041 -0.07221224 -0.026478678 0.048413247 -0.01939384
0.015374831 -0.026945377 0.050086208 0.0024190843 -0.0906095 0.012891801 -0.006451557 -0.038186394
-0.036689684 -0.031434067 -0.014915182 -0.0058782725 -0.03809211 -0.014531166 0.00594795 0.0041744704
00000000: 4b7e bfbc bc6c 373b 37cd 6d3d 78dc ae3c
00000010: 8413 093d 56e7 3b3c 0ab8 c1bc 7c3e c7bc
00000020: 5c95 07ba 6673 8e3c 0c27 85bc a1ca 85bc
00000030: d05b e23b adfc da3c 89b0 023d a9a8 f93b
00000040: 83a6 393d b4ba 4f3d 00ef 993c 4e59 cf3c
00000050: bc0d e5bb 99f0 233b ab31 9f3c 755c c53a
00000060: e373 a43b 690c 85bc 0fcb 91ba c5cd 463b
00000070: af78 a23c 77e5 c3bc d8a1 b9bc 2622 bdbb
00000080: 2c2b 503c 18b2 d73c 7e8a 213b 644d 20bc
00000090: 32be d6bc 5d87 4a3d 8a37 2c3d 6613 133d
000000a0: 9fa0 0dbd 8a7d 963b 11ff bd3c 6938 38bc
000000b0: 0817 0f3b 5a58 0a3c a18f a13b ea43 1f3d
000000c0: b6ef 243c 4f34 14bd 7ab5 c7bb 4d1b 02bb
000000d0: b4e9 053d 1c49 9abc 8191 e9bb 25c0 97bc
000000e0: 71c8 73bc 9925 393c bd40 92b7 4100 51bb
000000f0: a3ae 98bc 8b96 d93a 237b 1b3c b549 4b3c
00000100: 014c adbc 0d60 82bc 4935 853b 7c53 8bbc
00000110: 9189 bb3c d257 24bc d8b9 993c e240 a8bc
00000120: f5b4 b43b af55 033c f8b0 8cbc c346 94bc
00000130: 97cf bcbc d5a7 f6bc 23d6 9dbd 8f78 923a
00000140: b50a bb3c 4f81 12bc 8f34 813c ea23 79bd
00000150: ee6d 703b 42e5 103c 33f6 133d c469 6a3d
00000160: b257 903c eddb 24bc fd3d 7e3b 468c 69bd
00000170: 6e2c 1b3c 3343 b33c 0f5c 143c 331b 923c
00000180: ab54 1bbd b283 03bb d4b4 f2bc 2c65 bb3c
00000190: 82f4 b13c 402a f03c 1fad 513d 906d 433d
000001a0: 7db5 743c 767a a1bc 3f6f 47ba 69cd 6e3d
000001b0: c318 483d 05aa 81bb 2046 aa3a 53b9 4ebc
000001c0: f36c b2bc 2ee0 383c 4419 013b 964b 76bc
000001d0: bb1d ac3b cc6a 50bc 2cba 673c f815 ff3a
000001e0: 26b1 8b3c 6f34 b63d e097 dc3c 018d 6f3b
000001f0: c94b 24bd cb5f f9bb 0994 5239 ce6d 133d
00000200: af6a ce3c 9b8b b7bc 8fe4 c7bc 8a44 523c
00000210: 3f2c 083d 28f5 9c3a 2e9a 69bb 8d8a f1bc
00000220: e53e 2b3c 721c a93d 9bcb 113d 5ac3 043d
00000230: 6379 0ebd 3f35 083d f700 823c 3383 16bb
00000240: 9eb3 1bbc ef3c 7bbb 06f2 e63c 589a 26bd
00000250: 869b 503c a881 acbc d968 82bc c198 4ebb
00000260: 3c00 eebc 2247 7a3c 47a4 953c 1d9a 9c3c
00000270: 9e82 5f3b 78ba 163d 46a7 06bb ca5d 193b
00000280: ca9f 00bc c8e3 213d 3afc 813b 5c57 173c
00000290: 05d0 fbbb a573 74bc 042f e3bc 5164 57bc
000002a0: f1af 29bd f0d9 cfbb 3ee6 153b b912 a9bc
000002b0: 0ef7 1b3a 6376 a63b f087 92bc 2c63 6e3a
000002c0: 1b66 a03c 22cd 2e3d 180d f93d 7f39 b33b
000002d0: 11a5 9e3b 3687 4a3d 5754 543d 4e0a e83c
000002e0: 3ee6 ffbb 47b0 30ba 2ac8 ffbc a2e2 21ba
000002f0: a7ff 36bd b1b3 0e3c 6458 edbc 4ad9 c7bb
00000300: 2dce 86bc d0f1 97bc 3cc1 1b3d a2c3 a1bb
00000310: 27ba fbbb e35e a5bd 7f07 033c 6a5c 3fbc
00000320: 4b10 0c3c 6433 9dbc 9963 f63c f3a1 1c3c
00000330: 9c2e 793c 472f 183b 80cb af3c 9613 2ebd
00000340: c198 1fbd f11f bbbc db04 e5bb 6cc4 6fbc
00000350: 5447 813c d936 bf3b f5d6 d03c 31c2 013c
00000360: b8af 3c3d d128 6a3d 38a3 df3c d423 e2bc
00000370: 1f34 b93c 2e07 463d a03c ca3c 598e 2c3c
00000380: dae0 8ebc ae99 0dbd a0cd 453d da08 3a3d
00000390: 7d82 953d 29cb a93c dcac e5bc 21dc a03c
000003a0: 840c 3fbd d66d 513d 540b 4c3d 474a 6dbc
000003b0: 03e4 93bd d0e9 d8bc f84c 463d d5df 9ebc
000003c0: b7e6 7b3c 8dbc dcbc 3227 4d3d 8089 1e3b
000003d0: 7991 b9bd 2238 533c 9567 d3bb 5669 1cbd
000003e0: ec47 16bd 02c1 00bd cf5e 74bc 869e c0bb
000003f0: 7906 1cbd 2114 6ebc 05e7 c23b ffc9 883b

bias f4 [128]
-0.04919909 0.026729992 -0.022417657 -0.014984826 -0.026257638 -0.05051072 0.018318713 -0.055759486
0.016637877 0.06522294 -0.017856702 0.008250695 0.035492275 0.009646244 -0.041903283 -0.07033045
-0.06950942 -0.0054554115 -0.07137085 -0.019991837 -0.026068049 0.035151035 0.012214291 -0.047901
-0.013772364 0.00733459 0.031006727 0.014371092 -0.061290577 0.047333494 0.021862404 0.06172494
-0.009841626 -0.05714824 -0.044020843 -0.06367252 0.049602963 0.03460495 0.049789175 0.021978484
0.02576918 -0.044687543 0.006422334 0.074264675 0.015627515 -0.010085741 0.0042835786 0.027556133
0.055828966 0.028897762 -0.0043360144 -0.030610546 -0.0635605 0.036721565 0.06847601 0.011602302
0.0015955732 -0.04865059 0.0055459333 0.025358511 0.08674986 0.0041214935 0.016784709 -0.0045561916
-0.026298702 -0.05755846 -0.016156169 -0.0047938083 -0.052269597 0.03490482 0.0496164 -0.05093231
-0.08085297 0.036146823 -0.029999098 -0.05968738 0.04489116 -0.027020006 -0.05257192 0.03436893
0.03752268 -0.034218606 0.022729956 0.027173914 0.030216027 0.031738933 0.026980827 0.039015427
-0.0041599893 -0.0076373057 0.04964583 0.033660736 -0.02855539 -0.035077985 0.016619692 0.0003407729
0.027343823 0.03660736 0.0072906963 0.023672732 -0.051728986 -0.054054014 -0.00854189 0.06357129
-0.005665675 0.029473642 0.0007498199 0.048049156 -0.030268477 0.042076603 0.036137145 0.022722038
0.030950556 -0.01608738 0.008170154 0.034787785 -0.07628684 0.030556059 -0.003239048 -0.03978926
-0.046463843 0.043909702 0.0034132015 -0.043646112 -0.061451573 -0.0016288916 -0.010015918 0.026236005
00000000: fc84 49bd dbf8 da3c 3ca5 b7bc ea82 75bc
00000010: 421a d7bc 54e4 4ebd 2011 963c 0f64 64bd
00000020: 284c 883c 9b93 853d 3848 92bc ec2d 073c
00000030: 5960 113d 480b 1e3c c7a2 2bbd 6909 90bd
00000040: f45a 8ebd 4fc3 b2bb e12a 92bd ecc5 a3bc
00000050: a98c d5bc 88fa 0f3d 731e 483c d733 44bd
00000060: 7ba5 61bc 0057 f03b d201 fe3c bb74 6b3c
00000070: d40b 7bbd c4e0 413d c918 b33c 4ad3 7c3d
00000080: c53e 21bc 4614 6abd 334f 34bd bd66 82bd
00000090: 7a2c 4b3d ecbd 0d3d bcef 4b3d 390c b43c
000000a0: e319 d33c 490a 37bd 7172 d23b 1418 983d
000000b0: 4605 803c aa3e 25bc 435d 8c3b 66bd e13c
000000c0: eaac 643d 00bb ec3c 2015 8ebb f8c2 fabc
000000d0: 022c 82bd 5a69 163d 263d 8c3d 9517 3e3c
000000e0: 8d22 d13a d745 47bd a9ba b53b a7bc cf3c
000000f0: e9a9 b13d 980d 873b 1680 893c 1b4c 95bb
00000100: 6070 d7bc 6bc2 6bbd f159 84bc 6115 9dbb
00000110: a518 56bd 5bf8 0e3d 913a 4b3d 669e 50bd
00000120: 3e96 a5bd b10e 143d abc0 f5bc c17a 74bd
00000130: cbdf 373d 0f59 ddbc a755 57bd 6fc6 0c3d
00000140: 62b1 193d cf28 0cbd 2c34 ba3c d49b de3c
00000150: 9a87 f73c af00 023d e506 dd3c a4ce 1f3d
00000160: 8550 88bb 5d42 fabb 6d59 4b3d d7df 093d
00000170: feec e9bc efad 0fbd 0526 883c c4a9 b239
00000180: 2700 e03c 99f1 153d cbe6 ee3b 51ed c13c
00000190: c6e1 53bd be67 5dbd 49f3 0bbc aa31 823d
000001a0: 20a7 b9bb b572 f13c 908f 443a 31cf 443d
000001b0: 99f5 f7bc 8458 2c3d 8b04 143d 9123 ba3c
000001c0: 058c fd3c aec9 83bc 1cdc 053c a37d 0e3d
000001d0: 463c 9cbd b350 fa3c 3546 54bb 10fa 22bd
000001e0: df50 3ebd a9da 333d 05b0 5f3b 44c6 32bd
000001f0: a5b4 7bbd 8880 d5ba ce19 24bc e4ec d63c

weight f4 [10, 128]
0.17754987 -0.29510322 -0.107665 -0.21798828 -0.25768775 -0.26898527 -0.09897146 -0.458644
-0.19526257 0.12314811 -0.24835756 -0.12238755 -0.18880197 -0.17038783 0.17765072 -0.25177982
-0.1231016 0.054167483 -0.12869698 -0.19079591 -0.24063203 0.04718464 0.13096394 -0.057099976
0.30261806 -0.28643844 -0.22317795 -0.26239502 -0.16916263 -0.009215935 0.011256956 -0.082116745
-0.2371935 0.18914627 -0.09225003 -0.20334977 0.105592705 -0.1431401 -0.12728086 -0.18599516
-0.14232007 0.22654256 0.013485838 -0.043848954 0.14384852 0.1773726 0.1112661 -0.30453557
-0.18042015 -0.07366856 -0.06916735 -0.14287756 -0.22980255 0.29222545 0.30952427 -0.15446825
-0.23068945 -0.19270568 0.2680411 -0.3440776 0.15807077 -0.2674677 -0.2096418 -0.17887752
-0.23921391 -0.037206475 0.018500676 -0.18024732 -0.19262128 -0.029988682 -0.24513547 0.12629001
0.10356363 0.06858719 -0.13952771 0.018850056 0.05779479 -0.13017586 0.1826085 -0.1749545
0.21758771 -0.293367 -0.106849164 -0.23016705 0.31346008 -0.08183158 0.087728515 0.05089847
0.25303072 -0.14955036 0.16782726 0.05006322 -0.30425528 -0.16541614 0.26429704 0.18981193
0.19118625 0.15854016 -0.21437843 -0.051517896 -0.22943704 -0.17076589 0.21108381 0.20679976
0.1008017 0.16105492 -0.10253962 -0.16655295 -0.19667475 -0.17431103 -0.2924202 -0.15312959
0.06816299 0.1448783 -0.03202485 -0.080694355 -0.20330082 0.08611839 0.16144496 -0.2366679
-0.10769645 0.18572982 0.22071065 0.15522735 0.18505491 0.06588613 -0.28114843 0.08373042
-0.22247225 0.14017725 -0.011757149 -0.22859152 0.22980475 -0.13840619 0.14758226 -0.071442
0.3217626 0.20361115 -0.077462025 0.14276055 0.21012104 0.15700705 -0.21740223 -0.13890819
-0.1885599 0.049659006 -0.14112082 0.24745552 0.04501552 0.05131493 -0.024093468 -0.18005773
-0.08772016 0.21642624 0.15637243 0.21181296 -0.13025552 0.163379 -0.07150198 0.35025615
0.18495232 -0.22963789 -0.22967038 -0.25672626 0.10546459 0.1800701 0.2811553 0.2196526
0.21640502 -0.121655405 0.13556974 0.25481284 -0.02245282 -0.2694283 -0.11091304 0.22010654
0.35770598 0.2087495 0.04528489 -0.20839766 -0.28895453 0.08049044 0.22785187 0.11921757
0.3255642 -0.24794595 -0.15704298 0.14101918 0.26959193 0.20364042 0.24101044 -0.011223741
0.035318144 -0.1607426 0.10988104 0.108444326 0.013928802 0.22928387 0.21027237 -0.21436092
-0.33015102 0.17085135 0.0146057205 -0.289375 0.14941452 -0.17080799 -0.28641662 0.19480875
0.34325445 -0.004663 0.07750404 0.2175882 -0.1232792 0.11559877 0.19419259 -0.07929868
-0.15970163 0.30460548 0.16924085 0.030029973 -0.21678281 -0.14741907 0.011006814 -0.32378033
-0.22462435 0.22577408 0.3580731 0.24349293 -0.26294622 -0.020843294 -0.12086036 0.010380456
-0.003752866 0.005110975 -0.09057034 0.2044679 0.17249611 0.25656444 0.25295657 0.12156656
0.29171434 -0.14324073 0.08213088 0.18208867 -0.20733126 0.08412638 0.10719976 -0.20436284
-0.17609255 0.1888448 -0.22259268 -0.12479363 -0.20350213 0.13852541 0.16284251 0.037651457
00000000: a2cf 353e c517 97be 787f dcbd 5238 5fbe
00000010: a6ef 83be 70b8 89be 8cb1 cabd 63d3 eabe
00000020: e9f2 47be 1435 fc3d 7251 7ebe 53a6 fabd
00000030: 4e55 41be 267a 2ebe 12ea 353e 49e9 80be
00000040: b11c fcbd b9de 5d3d 24c9 03be 0160 43be
00000050: 3e68 76be ae44 413d 691b 063e aae1 69bd
00000060: c1f0 9a3e 0fa8 92be c388 64be a458 86be
00000070: f838 2dbe 6ffe 16bc 186f 383c d32c a8bd
00000080: dae2 72be 8faf 413e 95ed bcbd ec3a 50be
00000090: fd40 d83d 5293 12be ea55 02be 8475 3ebe
000000a0: 5abc 11be c6fa 673e b4f3 5c3c f69a 33bd
000000b0: 074d 133e 2aa1 353e 7bdf e33d 16ec 9bbe
000000c0: 0fc0 38be 8bdf 96bd 9da7 8dbd 7f4e 12be
000000d0: 5c51 6bbe 939e 953e f779 9e3e ed2c 1ebe
000000e0: db39 6cbe a354 45be af3c 893e f02a b0be
000000f0: 4edd 213e 87f1 88be 57ac 56be ab2b 37be
00000100: 7ef4 74be d165 18bd bb8e 973c c192 38be
00000110: 833e 45be d3aa f5bc cb04 7bbe 2b52 013e
00000120: 2b19 d43d 7177 8c3d 5ae0 0ebe 6f6b 9a3c
00000130: 3bba 6c3d d24c 05be b9fd 3a3e 4627 33be
00000140: 50cf 5e3e 3334 96be bcd3 dabd e9b0 6bbe
00000150: d77d a03e 5197 a7bd 02ab b33d ea7a 503d
00000160: 3e8d 813e bb23 19be e9da 2b3e 170f 4d3d
00000170: 59c7 9bbe d962 29be f151 873e 0f5e 423e
00000180: 54c6 433e 5a58 223e 0586 5bbe 6e04 53bd
00000190: 8bf1 6abe 41dd 2ebe 5b26 583e 51c3 533e
000001a0: 1f71 ce3d 95eb 243e 4b00 d2bd db8c 2abe
000001b0: 1b65 49be 977e 32be 1ab8 95be 01ce 1cbe
000001c0: 0a99 8b3d fa5a 143e 7d2c 03bd 1543 a5bd
000001d0: 172e 50be d75e b03d d451 253e 1259 72be
000001e0: f58f dcbd f52f 3e3e f901 623e ebf3 1e3e
000001f0: 097f 3d3e 4fef 863d b0f2 8fbe db7a ab3d
00000200: c4cf 63be a08a 0f3e 0fa1 40bc e513 6abe
00000210: f051 6b3e 5aba 0dbe ce1f 173e 2f50 92bd
00000220: 11be a43e 717f 503e 69a4 9ebd d22f 123e
00000230: f829 573e 75c6 203e b19e 5ebe f33d 0ebe
00000240: d915 41be 3e67 4b3d fa81 10be fb64 7d3e
00000250: 3262 383d 9b2f 523d aa5f c5bc 0e61 38be
00000260: a1a6 b3bd d79e 5d3e 1820 203e 7fe5 583e
00000270: b461 05be d34c 273e a16f 92bd c654 b33e
00000280: 2464 3d3e 3226 6bbe b62e 6bbe a071 83be
00000290: d2fd d73d 4c64 383e 96f3 8f3e 9cec 603e
000002a0: 4799 5d3e 7826 f9bd cbd2 0a3e d476 823e
000002b0: faee b7bc 82f2 89be 6026 e3bd 9c63 613e
000002c0: 3d25 b73e 6ec2 553e a67c 393d 3266 55be
000002d0: d9f1 93be 2cd8 a43d 0052 693e 5728 f43d
000002e0: 5ab0 a63e 8be5 7dbe e0cf 20be 5567 103e
000002f0: f407 8a3e 1d87 503e 71cb 763e c8e3 37bc
00000300: c2a9 103d b599 24be 5009 e13d 0f18 de3d
00000310: a135 643c 64c9 6a3e a451 573e 6e81 5bbe
00000320: 8e09 a9be a8f3 2e3e d54c 6f3c f628 94be
00000330: 1f00 193e 4ae8 2ebe 33a5 92be f27b 473e
00000340: 0cbf af3e 14cc 98bb 70ba 9e3d 71cf 5e3e
00000350: ce79 fcbd 0cbf ec3d 6cda 463e 5967 a2bd
00000360: d388 23be 40f5 9b3e 794d 2d3e 6b01 f63c
00000370: 50fc 5dbe 06f5 16be ed55 343c 89c6 a5be
00000380: ed03 66be 5231 673e 5b55 b73e 3656 793e
00000390: e3a0 86be 8ebf aabc a385 f7bd ca12 2a3c
000003a0: a5f2 75bb f779 a73b f17c b9bd 0860 513e
000003b0: d2a2 303e 6a5c 833e 8683 813e e3f7 f83d
000003c0: 955b 953e b3ad 12be 3c34 a83d 7475 3a3e
000003d0: a54e 54be 744a ac3d 8c8b db3d 7e44 51be
000003e0: 9b51 34be 8860 413e 56ef 63be cd93 ffbd
000003f0: dd62 50be 9bd9 0d3e 30c0 263e 6a38 1a3d

bias f4 [10]
-0.038079776 0.19483922 0.030512316 -0.086121984 -0.13371907 -0.038513403 -0.19639973 0.015366789
0.14780436 0.013618416
00000000: 8af9 1bbd ef83 473e f7f4 f93c b960 b0bd
00000010: a7ed 08be 3bc0 1dbd 031d 49be fcc4 7b3c
00000020: 075a 173e c71f 5f3c
